…
[ebenezer@ebenezer internship]$ python 12_tensorflow_training.py    
Using TensorFlow backend.
2020-05-31 00:45:10.474401: I tensorflow/stream_executor/platform/default/dso_loader.cc:44] Successfully opened dynamic library libcudart.so.10.2
Reading Files
X_train Length : 3705
Y_train Length : 3705
X_test Length : 959
Y_test Length : 959

Tune using inter_op_parallelism_threads for best performance.
Model: "sequential_1"
_________________________________________________________________
Layer (type)                 Output Shape              Param #   
=================================================================
conv2d_1 (Conv2D)            (None, 100, 100, 8)       224       
_________________________________________________________________
max_pooling2d_1 (MaxPooling2 (None, 50, 50, 8)         0         
_________________________________________________________________
dropout_1 (Dropout)          (None, 50, 50, 8)         0         
_________________________________________________________________
conv2d_2 (Conv2D)            (None, 50, 50, 16)        1168      
_________________________________________________________________
max_pooling2d_2 (MaxPooling2 (None, 25, 25, 16)        0         
_________________________________________________________________
dropout_2 (Dropout)          (None, 25, 25, 16)        0         
_________________________________________________________________
conv2d_3 (Conv2D)            (None, 25, 25, 16)        2320      
_________________________________________________________________
max_pooling2d_3 (MaxPooling2 (None, 12, 12, 16)        0         
_________________________________________________________________
conv2d_4 (Conv2D)            (None, 12, 12, 8)         1160      
_________________________________________________________________
max_pooling2d_4 (MaxPooling2 (None, 6, 6, 8)           0         
_________________________________________________________________
flatten_1 (Flatten)          (None, 288)               0         
_________________________________________________________________
dense_1 (Dense)              (None, 10)                2890      
_________________________________________________________________
dense_2 (Dense)              (None, 2)                 22        
=================================================================
Total params: 7,784
Trainable params: 7,784
Non-trainable params: 0
_________________________________________________________________
2020-05-31 00:45:17.811744: I tensorflow/core/profiler/lib/profiler_session.cc:159] Profiler session started.
2020-05-31 00:45:17.812522: I tensorflow/core/profiler/internal/gpu/cupti_tracer.cc:1363] Profiler found 1 GPUs
…
